net.pt (torch, 235894 bytes, 32 tensors)

main.0.weight f4 [100, 132]
0	0x3dacd06d	0.084381916
1	0xbcf1c3aa	-0.029512245
2	0xbcd89fa1	-0.026443304
3	0x3cf4becc	0.029876135
4	0x3cde8f6b	0.027167996
5	0x3ca10f73	0.019660687
6	0x3c84ec05	0.016225824
7	0xbc95e9df	-0.018299995
8	0xbd6979b2	-0.057000823
9	0x3d98ad5d	0.074549414
10	0x3db91113	0.0903646
11	0xbd4830cb	-0.048874658
12	0xbc770034	-0.015075732
13	0x3b4bea13	0.003111486
14	0x3e05a774	0.1305216
15	0xbb8b5cfa	-0.004253027
16	0x3ccbfc60	0.024900615
17	0x3d2f528d	0.042803336
18	0x3a13af04	0.00056336843
19	0xbd8f6187	-0.07001024
20	0x3cb9c049	0.022674697
21	0x3d487bac	0.048946068
22	0xbc8c92ac	-0.017159782
23	0xbd8abfeb	-0.06774887
24	0xbd1f2cfc	-0.03886126
25	0xbcc04747	-0.023471488
26	0x3d81fdcd	0.06347237
27	0x3d49f2c4	0.049303785
28	0x3d85c960	0.0653255
29	0x3dade05e	0.0849006
30	0x3e0625de	0.13100383
31	0xbd8a8444	-0.06763509
32	0x3d27c09f	0.040955182
33	0x3c31e937	0.010858825
34	0xbd0486d1	-0.032355133
35	0x3d9b3a9f	0.075795405
36	0x3d656a20	0.05600941
37	0x3ccc1c36	0.024915796
38	0x3de1368f	0.10996734
39	0xbcf47086	-0.029838812
40	0xbd97e6ea	-0.0741709
41	0x3c9bcef6	0.019019585
42	0x3c3f8c49	0.011691161
43	0x3d3c8120	0.04602158
44	0x3d2e382d	0.042534042
45	0x3d28f2f2	0.041247316
46	0x3dad7691	0.0846988
47	0xbd25b0f7	-0.04045197
48	0xbcf9cd41	-0.03049338
49	0x3d2537f7	0.040336575
50	0x3b53da8e	0.0032326314
51	0x3ccbb813	0.024868047
52	0x3dd82a6d	0.10554967
53	0x3d84da13	0.06486907
54	0x3d8ac36d	0.06775556
55	0x3c976aec	0.018483602
56	0x3cd19abc	0.025586478
57	0xbd6f8ec7	-0.058485772
58	0xbcd3eb66	-0.025869083
59	0xbcc21e18	-0.02369599
60	0xbdede510	-0.11615956
61	0x3d369f47	0.044585492
62	0x3d1386b1	0.036017124
63	0xbd0f74d8	-0.03502354
64	0x3d9ced62	0.07662465
65	0x3ab5bf58	0.0013866229
66	0x3d8cb980	0.06871319
67	0xbddb985d	-0.1072242
68	0xbd569581	-0.05238867
69	0x3d3719a7	0.0447022
70	0x3d78f832	0.060783572
71	0x3d7d2d32	0.06181068
72	0xbba91013	-0.005159387
73	0xbdc9974d	-0.098433115
74	0x3d88722f	0.06662404
75	0xbd14f8ff	-0.036370274
76	0xbd8720b4	-0.065980345
77	0xbce96f46	-0.028495442
78	0xbcd794b0	-0.026316017
79	0x3dc43047	0.09579521
80	0x3c93071a	0.017947722
81	0xbdae2dbc	-0.08504817
82	0xbc147cbb	-0.009062941
83	0xbe00ce0d	-0.12578602
84	0xbb1abf39	-0.0023612513
85	0xbd94cd68	-0.07265741
86	0x3ca9937a	0.020700205
87	0x3dad1e2b	0.0845302
88	0x3d34d669	0.04414979
89	0x3c4b9061	0.012424559
90	0xbc9bb33a	-0.01900636
91	0xbdf918f3	-0.12162962
92	0x3df40130	0.11914289
93	0x3d969598	0.073527515
94	0x3c690cf2	0.014224278
95	0x3b3fe19e	0.0029278765
96	0x3d6016e4	0.05470933
97	0xbc9221b1	-0.017838331
98	0xbd36028b	-0.04443602
99	0xbd502970	-0.050820768
100	0xbcd580c0	-0.02606237
101	0x3d85c909	0.06532485
102	0x3da4ba5c	0.08043358
103	0x3cd38e68	0.02582474
104	0x3d2e91c6	0.04261949
105	0xbccfc04b	-0.025360247
106	0x3e0c433a	0.1369752
107	0xbd2f2199	-0.04275665
108	0xbc8c3990	-0.017117292
109	0xbc9e0d55	-0.019293467
110	0x3ba05cb1	0.004893862
111	0xbdc56bf9	-0.09639735
112	0xbdb50d50	-0.0884043
113	0x3c95e652	0.018298302
114	0xbd120421	-0.03564847
115	0xbd36c1af	-0.044618305
116	0x3d975990	0.073901296
117	0x3c45f084	0.012081269
118	0xbca61544	-0.020273812
119	0x3d814fa7	0.063140206
120	0xbd2341ff	-0.03985786
121	0x3df0469b	0.11732217
122	0xbdee04bb	-0.11621996
123	0x3dd69e76	0.10479443
124	0x3d2eccc6	0.042675756
125	0x3da9a345	0.08283094
126	0xbd49b7f4	-0.049247697
127	0x3c42a641	0.011880458
128	0xbd032c05	-0.032024402
129	0x3de38229	0.111088105
130	0xbdfc28b5	-0.12312452
131	0x3ccbed11	0.024893316
132	0xbd407f33	-0.046996307
133	0x3dccabed	0.0999373
134	0xbd8d2e32	-0.06893577
135	0x3da327fb	0.0796661
136	0x3c357074	0.011074174
137	0xbc2c1d80	-0.01050508
138	0x3db21f03	0.08697321
139	0x3e155b3b	0.14585583
140	0xbd916837	-0.070999555
141	0xbb222e7c	-0.0024746945
142	0xbd93db40	-0.07219553
143	0x3de609aa	0.11232312
144	0x3c93b629	0.018031197
145	0x3dfd2517	0.1236059
146	0xbd1d1562	-0.03835047
147	0x3cef04ab	0.02917703
148	0xbdcea203	-0.10089495
149	0xbcd3ab56	-0.025838535
150	0xbc7741ce	-0.015091373
151	0x3d3be1b1	0.045869533
152	0xbd98b8b1	-0.07457102
153	0x3dd580a8	0.1042493
154	0xbd8be28e	-0.06830321
155	0x3e238f89	0.15972723
156	0xbdbc0382	-0.091803566
157	0x3d4ef98f	0.050530966
158	0x3d11f301	0.035632137
159	0xbbc308b6	-0.005951966
160	0xbd768358	-0.060183853
161	0x3ddf882e	0.10914646
162	0x3c27aad5	0.010233601
163	0x3e20a4bd	0.15687843
164	0x3d79b24e	0.06096106
165	0x3d323bdd	0.04351412
166	0x3cea0816	0.028568309
167	0x3e0ca498	0.13734663
168	0xbd85769a	-0.06516762
169	0x3d686100	0.05673313
170	0x3d03eacd	0.032206345
171	0x3e1b249d	0.15150686
172	0xbddbf987	-0.10740953
173	0x3d6e449e	0.058170907
174	0xbd321d4e	-0.04348498
175	0x3e0ff0ef	0.14056753
176	0xbc37a9da	-0.011209929
177	0x3cac7f53	0.021056807
178	0xbdd995c7	-0.10624271
179	0x3d543ade	0.051813953
180	0xbcd8b497	-0.0264533
181	0x3cf9f034	0.030510046
182	0xbdbeb782	-0.09312345
183	0x3cfccbb5	0.030858854
184	0x3baf88a1	0.0053568636
185	0xbd886fae	-0.06661926
186	0xbb17460e	-0.0023082527
187	0xbd4103a6	-0.04712262
188	0x3ccf4099	0.025299357
189	0xbdea552f	-0.11442029
190	0x3ccf1312	0.025277648
191	0xbe1244cc	-0.14284056
192	0xbdf743ec	-0.12073502
193	0x3ce27bd7	0.027646942
194	0x3dbba982	0.091631904
195	0x3c86de3d	0.016463393
196	0x3ce32209	0.02772619
197	0x3c12e267	0.008965111
198	0x3e0bc27f	0.13648413
199	0xbd757cde	-0.059933536
200	0xbd9fae97	-0.07796972
201	0xbd27eb49	-0.04099587
202	0xbcd6073d	-0.026126498
203	0x3cf6aab9	0.030110704
204	0x3da47c5d	0.08031533
205	0xbe1abebd	-0.15111823
206	0x3dc3b1d7	0.09555405
207	0x3d7f9432	0.06239719
208	0xbe21bff4	-0.1579588
209	0xbdc66676	-0.096875116
210	0x3ca40e92	0.020026479
211	0x3dde181f	0.108444445
212	0xbd5b7dfe	-0.053586952
213	0xbe0e074d	-0.13869973
214	0x3de69a80	0.11259937
215	0x3d23d3a4	0.039996758
216	0xbdcfb39d	-0.101416804
217	0xbddfdce9	-0.10930807
218	0x3d27fe47	0.041013982
219	0xbd053bd9	-0.03252778
220	0x3cccbeee	0.024993386
221	0xbc86bdff	-0.01644802
222	0x3d0e1d1b	0.034695726
223	0x3a8de03b	0.0010824272
224	0xbdb1e82a	-0.0868686
225	0xbc9964ab	-0.01872476
226	0xbd77c5ab	-0.060491245
227	0x3e0031ea	0.1251904
228	0xbd6cc876	-0.057808362
229	0x3ce0d7a3	0.027446574
230	0xbc1c9463	-0.0095568625
231	0x3df09e07	0.11748891
232	0x3e39cbcc	0.18144149
233	0xbc99513c	-0.018715493
234	0x3d5acf35	0.053420264
235	0xbd9b2164	-0.07574728
236	0xbdbc3cd8	-0.091912925
237	0x3cf85a29	0.03031643
238	0xbc92d50c	-0.017923854
239	0x3d575980	0.05257559
240	0x3ddee1ed	0.10882936
241	0xbde0be9d	-0.109738566
242	0x3d08aa48	0.033365518
243	0x3db2643d	0.08710525
244	0x3cb0783e	0.021541711
245	0xbd7eea47	-0.062235143
246	0xbd6c08f2	-0.05762572
247	0xbd4a9388	-0.049457103
248	0x3de48606	0.111583754
249	0xbe0d63f6	-0.13807663
250	0xbdcc88c5	-0.09987024
251	0xbd409c1a	-0.04702387
252	0xbdbc3cb8	-0.09191269
253	0xbc7914bf	-0.0152027
254	0xbd4a5403	-0.049396526
255	0x3d4df746	0.050284646

main.0.bias f4 [100]
0	0xbcc15489	-0.02359988
1	0x3d36baf3	0.044611882
2	0x3d9dadd4	0.07699171
3	0xbc54ca55	-0.012987693
4	0x3dc8ae62	0.09798886
5	0xbd5fc447	-0.054630544
6	0x3d65cf07	0.05610564
7	0xbd02fdf2	-0.031980462
8	0x3d80e2db	0.06293269
9	0xbd5a66c4	-0.05332066
10	0x3d6b81a0	0.057496667
11	0xbd5ff0a4	-0.054672852
12	0x3d34416f	0.044007715
13	0x3d40c59c	0.047063455
14	0x3db922cc	0.0903984
15	0x3d0e8f16	0.034804426
16	0x3c849919	0.016186284
17	0xbdf5e92b	-0.12007364
18	0x3dc6d10e	0.09707843
19	0x3da2fcf3	0.079584025
20	0xbd7ac360	-0.06122148
21	0xbcad8ec8	-0.021186247
22	0xbcb79504	-0.022409923
23	0x3a4ca650	0.0007806765
24	0xbda51b73	-0.08061876
25	0xbd9153f1	-0.07096089
26	0xbdb6adae	-0.089198455
27	0xbd76f6a9	-0.060293827
28	0xbce05b49	-0.027387278
29	0xbcd87b33	-0.026425933
30	0xbde60a19	-0.11232395
31	0x3d11d70a	0.035605468
32	0x3bffefb7	0.0078105587
33	0x3da3c278	0.07996076
34	0xbd995515	-0.07486931
35	0xbd6562eb	-0.05600254
36	0x3c07167d	0.008245108
37	0x3d07ab0f	0.03312212
38	0xbd5aeb0d	-0.05344682
39	0xbd86ae84	-0.06576255
40	0x3d5f5a1d	0.054529298
41	0xbd9060a3	-0.07049682
42	0x3db1331b	0.08652326
43	0xbdc39171	-0.09549225
44	0x3de28c3d	0.110619046
45	0x3d812166	0.06305198
46	0xbcd876f8	-0.026423916
47	0xbd93af4b	-0.07211169
48	0xba236558	-0.0006233058
49	0x3cfd5a5a	0.030926872
50	0xbdb6d3e2	-0.08927132
51	0xbdece989	-0.11567981
52	0x3d2fccf3	0.042920064
53	0xbca0efae	-0.019645538
54	0xbd0661d7	-0.03280815
55	0x3c9ca14e	0.019119885
56	0xbd6c514d	-0.057694722
57	0x3dc6d6ee	0.09708963
58	0xbd857e5f	-0.06518244
59	0x3d13a01a	0.036041357
60	0xbb362a93	-0.0027796372
61	0x3de73afb	0.112905465
62	0x3c218430	0.009858176
63	0x3c259d2e	0.010108275
64	0x3e13ae1e	0.14421889
65	0x3d691106	0.056901
66	0x3dbf0be2	0.09328438
67	0xbd4a9ef7	-0.049468007
68	0xbcbba6ba	-0.02290665
69	0xbd8e74d0	-0.06955874
70	0x3d317c1e	0.043331258
71	0x3dfbfb1e	0.12303756
72	0x3c083415	0.008313199
73	0x3cdd25c7	0.026995553
74	0xbd343843	-0.043998968
75	0x3cf4fafc	0.029904835
76	0xbcb396b1	-0.021922441
77	0x3ceae8e1	0.028675498
78	0xbcbf6ad8	-0.023366377
79	0xbdbaa3b6	-0.09113257
80	0xbd91ae64	-0.071133405
81	0x3cc6e0f0	0.02427718
82	0x3d9908a9	0.07472355
83	0xbdd42e88	-0.10360438
84	0x3d72a1bc	0.059236273
85	0xbcb3dba9	-0.021955328
86	0x3c8b694c	0.017017983
87	0x3e05a718	0.13052022
88	0x3da44423	0.080208085
89	0xbd390a8d	-0.045176078
90	0x3d8d0dab	0.068873726
91	0x3d44d77c	0.048057064
92	0xbd2678f9	-0.040642712
93	0xbd9a1acc	-0.07524642
94	0xbd61dc07	-0.055141475
95	0x3dda9b08	0.10674101
96	0x3c9592bf	0.01825845
97	0xbb493778	-0.0030703228
98	0x3dfaf9c6	0.12254672
99	0xbc8b1bfd	-0.01698112

main.1.weight f4 [100]
0	0x3f6c5e82	0.9233171
1	0x3f7f6075	0.99756557
2	0x3f85f9ff	1.0466918
3	0x3f7426e6	0.95371854
4	0x3f6e1ae1	0.93009764
5	0x3f75398d	0.9579094
6	0x3f8edb26	1.1160629
7	0x3f6dfc1a	0.929628
8	0x3f71f5ad	0.94515496
9	0x3f846c0e	1.0345476
10	0x3f88209f	1.0634955
11	0x3f814ae4	1.010098
12	0x3f85bc8b	1.0448164
13	0x3f865e8c	1.0497603
14	0x3f835893	1.0261406
15	0x3f8040e6	1.0019805
16	0x3f741de7	0.9535813
17	0x3f79735a	0.9744164
18	0x3f87752e	1.0582635
19	0x3f97c232	1.1856139
20	0x3f8025b8	1.0011511
21	0x3f84857c	1.0353236
22	0x3f805fe1	1.002926
23	0x3f896487	1.0733804
24	0x3f7bd14d	0.9836624
25	0x3f8b35a5	1.0875746
26	0x3f8b44b5	1.0880343
27	0x3f6af979	0.91786915
28	0x3f81a6d5	1.0129038
29	0x3f82e5bb	1.0226358
30	0x3f7bd907	0.9837803
31	0x3f7b9061	0.9826718
32	0x3f88dcfa	1.0692437
33	0x3f6f1cac	0.93403125
34	0x3f87304c	1.0561614
35	0x3f81d6f3	1.0143722
36	0x3f64714e	0.8923539
37	0x3f8a786f	1.0818003
38	0x3f70117e	0.9377669
39	0x3f671d63	0.90279216
40	0x3f7bbf64	0.98338914
41	0x3f6a3f8b	0.9150321
42	0x3f6fad7d	0.936241
43	0x3f6765ce	0.90389717
44	0x3f7b17ca	0.98083174
45	0x3f6b5e21	0.91940504
46	0x3f859db4	1.0438752
47	0x3f7694e0	0.96320915
48	0x3f772ee9	0.96555954
49	0x3f6e4619	0.9307571
50	0x3f5fcc24	0.8742087
51	0x3f8514ed	1.0397011
52	0x3f6b95d8	0.9202552
53	0x3f818992	1.0120108
54	0x3f774a75	0.9659799
55	0x3f80cd7f	1.0062712
56	0x3f7d5a07	0.98965496
57	0x3f7aca21	0.97964674
58	0x3f693470	0.9109564
59	0x3f6e2083	0.9301836
60	0x3f8561ef	1.0420512
61	0x3f6a3a96	0.91495645
62	0x3f6cc099	0.9248138
63	0x3f712a2f	0.9420499
64	0x3f8e68d9	1.1125747
65	0x3f8136b3	1.0094818
66	0x3f8c2957	1.0950116
67	0x3f82c604	1.021668
68	0x3f7b026b	0.98050565
69	0x3f8152be	1.0103376
70	0x3f740acf	0.9532899
71	0x3f74ecf6	0.95674074
72	0x3f7bb690	0.98325443
73	0x3f7f927d	0.998329
74	0x3f6db250	0.9285021
75	0x3f7edd2f	0.9955625
76	0x3f7326b0	0.9498091
77	0x3f703042	0.93823636
78	0x3f61162c	0.87924457
79	0x3f6c384e	0.92273414
80	0x3f77bcc9	0.9677244
81	0x3f731f92	0.9497005
82	0x3f68b09b	0.9089448
83	0x3f71e5a9	0.9449106
84	0x3f73ff0b	0.9531104
85	0x3f81ada4	1.0131116
86	0x3f755318	0.95829916
87	0x3f796c17	0.97430557
88	0x3f8fbe10	1.1229877
89	0x3f7f253f	0.9966621
90	0x3f74b23b	0.9558446
91	0x3f7c3f21	0.9853383
92	0x3f7d6869	0.9898744
93	0x3f7a4693	0.9776394
94	0x3f773a6c	0.9657352
95	0x3f801ebe	1.0009382
96	0x3f805bf2	1.002806
97	0x3f7ec942	0.99525845
98	0x3f90706e	1.1284311
99	0x3f82f650	1.0231419

main.1.bias f4 [100]
0	0xbdcd4eed	-0.100248195
1	0xbcbb53b8	-0.022867069
2	0xbccfe5bd	-0.025378102
3	0xbd9099df	-0.070605986
4	0xbd8d92ab	-0.0691274
5	0x3bd34569	0.0064474833
6	0xbaa2e82f	-0.0012428815
7	0xbdd3f97a	-0.10350318
8	0xbd1a073d	-0.03760456
9	0xbc5f3f57	-0.013625941
10	0xbcac5212	-0.021035228
11	0x3ba61557	0.005068462
12	0xbce4dd38	-0.027937517
13	0x3cebcef0	0.028785199
14	0xbd36cf9b	-0.04463158
15	0xbde81c8d	-0.11333571
16	0x3c41a6ad	0.011819524
17	0xbca92bd0	-0.020650774
18	0xbd015181	-0.03157187
19	0xbdc780a2	-0.09741332
20	0xbdacee39	-0.08443875
21	0xbd3b4ea7	-0.045729306
22	0xbd7e78b7	-0.06212684
23	0xbd2546aa	-0.040350594
24	0xbd57c7c6	-0.052680753
25	0xbbf3eeb6	-0.007444228
26	0xbd3c558a	-0.045980014
27	0xbd56e855	-0.052467663
28	0xbd6e2512	-0.05814082
29	0xbd337631	-0.043813888
30	0xbde00cec	-0.10939965
31	0x3ce93da8	0.028471783
32	0x3d9dfd41	0.0771432
33	0xbc2636c1	-0.01014489
34	0x3be63adf	0.007026061
35	0xbd5ccf36	-0.05390855
36	0xbdfe7e51	-0.12426437
37	0xbe0de594	-0.13857108
38	0xbdb5ff9a	-0.08886643
39	0xbd94c895	-0.072648205
40	0xbcf201f2	-0.029541943
41	0xbe40dd4f	-0.18834423
42	0xbdb245c9	-0.08704717
43	0xbde35aba	-0.11101289
44	0xbd0ce3ff	-0.03439712
45	0xbd42455d	-0.04742943
46	0xbda61588	-0.081095755
47	0xbcf987c2	-0.030460242
48	0xbda44f7d	-0.08022974
49	0xbddaa818	-0.106765926
50	0xbe125210	-0.14289117
51	0xbc2b8f78	-0.010471217
52	0xbd53b398	-0.051684946
53	0xbba047a7	-0.004891354
54	0xbda5bb15	-0.08092324
55	0xbd2a5e7d	-0.041594017
56	0xbd2e3f8b	-0.042541068
57	0x3c676bf2	0.014124857
58	0xbd98fed8	-0.074704826
59	0xbdc149b9	-0.094378896
60	0x3b97448f	0.004616327
61	0x3c78dd59	0.015189492
62	0xbd647c93	-0.055782866
63	0xbd9349a5	-0.07191781
64	0xbc052c26	-0.008128202
65	0xbd6b5e46	-0.057462953
66	0xbc1b2d1e	-0.009471206
67	0xbdf27b0f	-0.11839878
68	0x3c921fdf	0.017837463
69	0x3d062e6c	0.032759115
70	0xbd88274f	-0.066481225
71	0xbca7dd77	-0.020491345
72	0xbcfdd4f4	-0.030985333
73	0xbd3b33f3	-0.04570384
74	0xbd58a78b	-0.052894156
75	0xbd320ced	-0.04346936
76	0xbccb82a4	-0.024842568
77	0xbd2a7e0c	-0.041624114
78	0xbdba5b1c	-0.09099409
79	0xbd4d5a8f	-0.05013519
80	0xbd8c0570	-0.068369746
81	0xbd270733	-0.04077835
82	0xbbb14662	-0.0054100016
83	0xbd3b4faa	-0.04573027
84	0xbda1276a	-0.07868846
85	0xbd4dd83d	-0.05025505
86	0xbdca1f8f	-0.098693006
87	0xbc963759	-0.018336939
88	0xbd8482c6	-0.064702556
89	0xbdff1a42	-0.1245618
90	0xbce86f8e	-0.028373506
91	0xbc13a99a	-0.009012604
92	0xbb6bef56	-0.003600081
93	0xbd74e984	-0.05979301
94	0xbdb05b25	-0.086111344
95	0xbdb4f4df	-0.08835768
96	0xbd2f245d	-0.042759288
97	0x3ca46156	0.020065945
98	0x3d7538f2	0.05986876
99	0xbd32445b	-0.04352222

main.1.running_mean f4 [100]
0	0xbeb6948b	-0.35660204
1	0x3ec9c86b	0.3941072
2	0x3dd7ffd4	0.10546842
3	0x3fa96d11	1.323641
4	0x3f02acac	0.51044726
5	0xbf5b6bfb	-0.8571164
6	0x3fb481d4	1.410212
7	0x3f37ef0f	0.7184915
8	0x3e0c5487	0.1370412
9	0xbf95bc70	-1.1698132
10	0x3e3af5db	0.18257849
11	0x3f63a86f	0.88928884
12	0x3edfec6e	0.4373507
13	0x3ffcec01	1.9759523
14	0xbe84765d	-0.25871554
15	0x3fdc96b7	1.7233495
16	0xbf25ad15	-0.6471723
17	0xbf065202	-0.52468884
18	0x3f5e82b6	0.869182
19	0x3ebebbf6	0.37252778
20	0xbeb2e8b2	-0.34943157
21	0x3ee44bd2	0.44589096
22	0x3fcb7978	1.5896444
23	0x3ecf3dcc	0.40476835
24	0x3fe0240a	1.7510998
25	0x3f7cf8d9	0.9881721
26	0x3f183609	0.5945745
27	0x3efab1f8	0.48963904
28	0x3ddb6917	0.10713404
29	0x3fb133c3	1.3843921
30	0x3eb32415	0.34988466
31	0x3fd2532f	1.6431636
32	0x3f1fa750	0.62364674
33	0xbec5b814	-0.38617003
34	0x3e2a3fa2	0.16625836
35	0xbd0683a3	-0.032840382
36	0xbf8b3d1f	-1.0878028
37	0x3f4bdae2	0.79630864
38	0x3f3e30d0	0.7429323
39	0x3ec11e1c	0.37718284
40	0x3fcd7cc6	1.6053703
41	0x3d853287	0.06503778
42	0xbf73bb5c	-0.9520776
43	0x3ea2963b	0.31755242
44	0xbe293bb9	-0.16526689
45	0x3e5ccc57	0.21562324
46	0x3f335a5c	0.7005975
47	0xbeb76674	-0.35820353
48	0xbeada98b	-0.33918414
49	0x404e7ee3	3.2264946
50	0xbdac6502	-0.08417703
51	0x3ff41b0c	1.9070754
52	0xbf6bb86c	-0.9207828
53	0x3f6f4823	0.93469447
54	0xbf4cf3ee	-0.8005971
55	0x3ee1fb11	0.4413686
56	0x3f8aaee5	1.0834624
57	0xbc85b373	-0.01632092
58	0x3f4b101c	0.79321456
59	0x3f5bd27f	0.85868067
60	0x4009e665	2.1546872
61	0x3fa0a564	1.2550473
62	0xc012f43e	-2.2961574
63	0x3fa998a2	1.3249705
64	0x3f84a754	1.0363564
65	0xbe8998fe	-0.26874536
66	0x3f6f1935	0.9339784
67	0xbf5445b1	-0.8291884
68	0xbeaa0c89	-0.3321269
69	0x3f5ccdb7	0.86251396
70	0x3ef3d1bd	0.47620955
71	0xc005cd05	-2.0906384
72	0x3c1c8261	0.009552569
73	0x4004e3e3	2.076409
74	0x3f1023a6	0.56304395
75	0x3f50d4d4	0.8157475
76	0x3dfb8e16	0.1228296
77	0xbf5164e3	-0.81794566
78	0xbf751955	-0.9574178
79	0xbeec3759	-0.46135977
80	0x3f8dd109	1.1079417
81	0xbefafdc2	-0.49021727
82	0xbed46a52	-0.41487366
83	0x3f385c83	0.7201616
84	0x3ea303a5	0.31838718
85	0x401d18aa	2.4546304
86	0x3ec9b9d1	0.3939958
87	0xbffa782b	-1.9567922
88	0x3fb3b812	1.4040549
89	0x3f92c59a	1.1466553
90	0x3eb977bd	0.36224166
91	0xbfa1f485	-1.2652746
92	0xbef24cca	-0.4732421
93	0xbe0a8185	-0.1352597
94	0x3f5308d0	0.8243532
95	0x3f0df170	0.5544653
96	0xbfccf366	-1.6011779
97	0xbfac4a55	-1.3460184
98	0x3f0cb992	0.5497066
99	0x3f9fd43f	1.2486647

main.1.running_var f4 [100]
0	0x3e8600fe	0.26172632
1	0x3e384ab0	0.17997241
2	0x3dbde0ae	0.0927137
3	0x3e3d7ada	0.18503895
4	0x3ec28edc	0.37999618
5	0x3db03a50	0.08604872
6	0x3db9b9e2	0.090686575
7	0x3e000e4b	0.12505452
8	0x3ed9a35d	0.4250745
9	0x3d923b74	0.07140246
10	0x3d89587e	0.06706332
11	0x3d7e7c43	0.062130224
12	0x3d85a33d	0.06525276
13	0x3e33b5cc	0.17549819
14	0x3d948272	0.07251443
15	0x3d9fa47e	0.07795046
16	0x3d482d7b	0.0488715
17	0x3dfb6ed8	0.12277001
18	0x3d527776	0.051383458
19	0x3cc0ff44	0.02355922
20	0x3e1ed529	0.15511002
21	0x3cb295e3	0.021799987
22	0x3dbb2c27	0.09139281
23	0x3dbba993	0.09163203
24	0x3d4b8523	0.049687516
25	0x3d934641	0.07191134
26	0x3dcec243	0.10095646
27	0x3e18f98f	0.14938949
28	0x3cdac215	0.026703874
29	0x3e315b9e	0.17320105
30	0x3d9d011e	0.07666229
31	0x3cc1c260	0.023652256
32	0x3d077369	0.033069048
33	0x3e00b277	0.12568079
34	0x3d69d8f0	0.057091653
35	0x3dab69e2	0.08369805
36	0x3e987e9a	0.2978409
37	0x3d21865a	0.03943477
38	0x3d5d7cd2	0.054074116
39	0x3e8c50a4	0.27405274
40	0x3dcf48da	0.10121317
41	0x3e1b89ac	0.15189236
42	0x3e9a87b6	0.30181664
43	0x3dd6c183	0.10486128
44	0x3dab9110	0.08377278
45	0x3df3d5a9	0.11905987
46	0x3dd0cf0c	0.10195741
47	0x3dd7c150	0.10534918
48	0x3d32719e	0.043565385
49	0x3de398a1	0.11113096
50	0x3dcd65d3	0.10029187
51	0x3d098f98	0.033584207
52	0x3dded35b	0.108801566
53	0x3de5027e	0.11182116
54	0x3e28633c	0.16444105
55	0x3d11de65	0.035612483
56	0x3d6e3f1d	0.05816566
57	0x3cdb8663	0.026797479
58	0x3e937385	0.28799072
59	0x3df90b32	0.121603385
60	0x3dd5e4c8	0.10444027
61	0x3dd7d838	0.10539287
62	0x3e370bae	0.17875549
63	0x3d891b0f	0.06694614
64	0x3c9f190a	0.01942112
65	0x3dfe12b4	0.12405911
66	0x3c94733c	0.018121354
67	0x3d795b80	0.060878277
68	0x3e133333	0.14375
69	0x3e37b774	0.17941076
70	0x3ddeccfb	0.10878941
71	0x3da6118d	0.08108816
72	0x3dae5dd9	0.08513994
73	0x3d1146fc	0.035468087
74	0x3e5d51fb	0.21613304
75	0x3dcebe09	0.1009484
76	0x3da868aa	0.08223088
77	0x3eab8299	0.33498076
78	0x3ecb193c	0.3966769
79	0x3e3fe7d2	0.18740776
80	0x3e047215	0.12934144
81	0x3e5ca298	0.215464
82	0x3e9c60ca	0.30542594
83	0x3ebc3d6a	0.36765605
84	0x3e247309	0.16059507
85	0x3d6ceb3f	0.057841536
86	0x3dc6cda4	0.097071916
87	0x3d7a42ae	0.061098747
88	0x3d777a6f	0.060419496
89	0x3da9c4a4	0.08289459
90	0x3e1600d3	0.14648752
91	0x3e2472fb	0.16059487
92	0x3dd2534c	0.10269794
93	0x3d985460	0.07437968
94	0x3dd662fe	0.104681
95	0x3c970b89	0.018438118
96	0x3e2ee606	0.17079934
97	0x3e86f194	0.26356184
98	0x3d219511	0.0394488
99	0x3dbc6a84	0.09200004

main.3.weight f4 [100, 100]
0	0xbdb295ad	-0.08719955
1	0x3e0b47b6	0.13601574
2	0x3da770cb	0.081758104
3	0xbdbe3cb8	-0.09288925
4	0xb9a48872	-0.00031382177
5	0x3d52de5d	0.051481593
6	0xbc272433	-0.010201502
7	0xbdee7db0	-0.11645067
8	0x3ded4c39	0.11586804
9	0xbd79e4a3	-0.06100906
10	0x3ca5961b	0.020213177
11	0xbe12e4a2	-0.14345029
12	0x3d5671de	0.052354686
13	0xbdc53692	-0.09629549
14	0xbd45a29f	-0.04825079
15	0xbc9ad6f5	-0.018901328
16	0x3bda886a	0.006669094
17	0xbe0fcc0d	-0.14042683
18	0x3e04b635	0.12960131
19	0xbd2f98aa	-0.0428702
20	0xbd915a47	-0.07097297
21	0x3de4f72a	0.11179955
22	0xbd9cd5f1	-0.076579936
23	0x3bd2c812	0.0064325416
24	0x3d28dd71	0.041226808
25	0x3d08b0fc	0.03337191
26	0xbdb50453	-0.088387154
27	0x3ddd0489	0.10791881
28	0xbde3fdb4	-0.111323744
29	0x3d66580f	0.056236323
30	0xbd30f8f6	-0.043206178
31	0xbd0c74ec	-0.034291193
32	0xbdcd7ea2	-0.10033919
33	0x3db6b07a	0.08920379
34	0xbc41a3ff	-0.011818885
35	0xbdc26e84	-0.094937354
36	0xbccba1f0	-0.024857491
37	0xbdedfdac	-0.1162065
38	0x3d23d185	0.039994735
39	0xbda62592	-0.08112635
40	0xbd30d0b0	-0.04316777
41	0xbdcc8abf	-0.09987401
42	0xbd547e85	-0.05187847
43	0x3dd720e4	0.1050432
44	0xbd008f6a	-0.03138677
45	0x3dab9bfd	0.08379362
46	0xbdee5816	-0.11637895
47	0x3d476069	0.04867593
48	0x3d1a6fa2	0.037704118
49	0x3ca62aac	0.02028402
50	0xbdae1b39	-0.08501286
51	0x3da68d3f	0.08132409
52	0x3d26b804	0.040702835
53	0xbe1aba2b	-0.1511008
54	0x3da33917	0.079698734
55	0x3dd02fe5	0.10165385
56	0x3d6ea20f	0.05826002
57	0xbbc575ec	-0.0060260203
58	0xbd83c0f6	-0.06433289
59	0xbd94deb5	-0.072690405
60	0xbdf8a067	-0.12139969
61	0x3db5fe50	0.08886397
62	0xbd6e2ff3	-0.058151197
63	0xbbfe6ef9	-0.007764694
64	0xbcef1ae1	-0.029187622
65	0x3d852216	0.06500642
66	0xbcea57a8	-0.02860625
67	0xbcafe02a	-0.021469194
68	0xbd4048d8	-0.04694447
69	0xbd5e255b	-0.054234844
70	0xbce69726	-0.028148245
71	0x3dd5e1aa	0.10443433
72	0x3de065b3	0.109568976
73	0xbcf0cf29	-0.029395657
74	0xbd7cce92	-0.06172044
75	0x3d0c59e3	0.03426541
76	0xbd763a74	-0.06011434
77	0x3cf5ea98	0.03001909
78	0xbcf79927	-0.030224396
79	0x3c67927f	0.0141340485
80	0x3c686727	0.01418475
81	0x3d0c0c12	0.0341912
82	0xbc9bc122	-0.019012991
83	0xbd2617ff	-0.04055023
84	0x3da1727b	0.078831635
85	0xbce441d8	-0.027863428
86	0x3cae2a0f	0.02126029
87	0x3d96c043	0.0736089
88	0x3d90b37c	0.07065484
89	0xbe2f875f	-0.17141484
90	0x3de678fd	0.112535454
91	0x3df6f01e	0.120575175
92	0xbd9b7ddf	-0.075923674
93	0x3c6896d8	0.01419612
94	0x3dcda8c7	0.10041957
95	0xbbca6902	-0.0061770687
96	0x3da000ee	0.07812677
97	0x3c0ae1f7	0.008476726
98	0x3d861828	0.06547576
99	0xbd80ac3b	-0.0628285
100	0x3db915f5	0.09037391
101	0xbdd4f9a9	-0.103991814
102	0xbd0b4d26	-0.03400912
103	0x3ccc63a6	0.02494986
104	0x3d823787	0.06358247
105	0xbdb383d7	-0.08765381
106	0xbd256f7b	-0.04038952
107	0x3d322f73	0.043502282
108	0x3d67264c	0.056433007
109	0x3e010e79	0.12603177
110	0x3bcd8e87	0.006273094
111	0xbe1e70c3	-0.15472703
112	0xbd33ad33	-0.043866348
113	0xbc67dfb0	-0.014152452
114	0xbdd0015f	-0.101565115
115	0x3cde1e3c	0.027114026
116	0xbd97052a	-0.07374032
117	0x3db93481	0.090432175
118	0x3af3f37e	0.0018611995
119	0x3d482000	0.048858643
120	0xbc15e093	-0.009147781
121	0xbd99d371	-0.075110324
122	0x3ddb0a1d	0.10695288
123	0x3dbf02d1	0.09326709
124	0xbd72a0b0	-0.059235275
125	0x3d699e82	0.05703593
126	0x3b91e394	0.0044521783
127	0xbbcc1b28	-0.006228823
128	0xbd8b4d50	-0.068018556
129	0xbd9d9395	-0.07694165
130	0xbd56ed6a	-0.05247251
131	0xbd23e06f	-0.04000896
132	0x3e624cf0	0.22099662
133	0xbd70e730	-0.058814228
134	0xbc67e3bf	-0.01415342
135	0xbd11c2b2	-0.035586067
136	0xbd7de430	-0.061985195
137	0x3d6016b9	0.05470917
138	0xbb62aa7f	-0.0034586487
139	0x3e1d725a	0.15375653
140	0x3c7c2484	0.015389565
141	0x3dba90cb	0.09109648
142	0x3dc4b88e	0.096055135
143	0x3db6e297	0.08929937
144	0x3da24458	0.07923192
145	0xbd357b1f	-0.04430687
146	0x3d26cc16	0.040721975
147	0x3c497b50	0.012297466
148	0x3d0d70fc	0.03453158
149	0xbcd1608b	-0.02555873
150	0xbd39d6c5	-0.045370836
151	0xbd37d4d1	-0.044880692
152	0xbdb45b8b	-0.08806523
153	0x3e04ddc0	0.12975216
154	0xbdf14b59	-0.117819495
155	0x3d20896a	0.03919355
156	0xbd766088	-0.060150653
157	0xbc630f86	-0.013858682
158	0x3df63731	0.12022246
159	0x3c7087a9	0.014680781
160	0x3a848579	0.0010110579
161	0xbd956e95	-0.072964825
162	0xbc76312f	-0.015026375
163	0xbd3e3a1d	-0.04644214
164	0xbdcacdd8	-0.09902543
165	0x3dcc60e1	0.09979416
166	0x3df4364b	0.11924418
167	0xbd49c6dd	-0.049261916
168	0xbca78d01	-0.020452978
169	0x3d8da3b4	0.069159895
170	0xbc4f3500	-0.0126469135
171	0x3d1ac632	0.03778667
172	0x3dcb6b4a	0.09932573
173	0x3d1243f0	0.03570932
174	0x3d8313cc	0.0640026
175	0x3c9062f4	0.01762531
176	0x3da97d85	0.08275894
177	0xbd656445	-0.056003828
178	0x3c7ed7c2	0.01555437
179	0x3c8e019c	0.017334752
180	0xbd2184d0	-0.0394333
181	0x3aaab008	0.0013022432
182	0x3db7e3c0	0.08978987
183	0x3c76f6ab	0.015073459
184	0x3dcc9d88	0.09990984
185	0x3b2f0b34	0.0026709558
186	0x3e1ad33e	0.15119645
187	0x3de6bc28	0.11266357
188	0xbdb8b2ea	-0.090185
189	0xbc2f2efa	-0.010692352
190	0x3d566486	0.05234196
191	0xbdd0e336	-0.10199587
192	0x3da641d2	0.08118023
193	0xbdb426c3	-0.08796456
194	0xbc49ab3d	-0.012308893
195	0xbd852e6d	-0.06502996
196	0xbdb97aae	-0.090566024
197	0x3decf09f	0.11569332
198	0xbd6fc5f3	-0.05853839
199	0xbdd955f6	-0.10612099
200	0x3d962855	0.073319115
201	0xbd56dbc3	-0.052455675
202	0x3dc4357b	0.09580513
203	0x3dbb27d4	0.09138456
204	0x3d9efa33	0.077625655
205	0xbdcb67a7	-0.099318795
206	0x3e083ccc	0.13304442
207	0x3d12920f	0.035783824
208	0xbd5ea263	-0.054354083
209	0x3e13d9fd	0.14438625
210	0x3dd7432d	0.1051086
211	0x3d862b5e	0.065512404
212	0x3dafd140	0.08584833
213	0x3c61a052	0.0137711335
214	0x3df2bf84	0.11852935
215	0xbcdc22e4	-0.026872106
216	0x3d22f6cb	0.03978614
217	0xbcafe934	-0.021473505
218	0x3dd6d483	0.10489752
219	0x3c33887e	0.010957835
220	0xbbd67749	-0.0065449816
221	0x3d53e7d3	0.051734757
222	0x3d02659c	0.031835184
223	0x3bed500b	0.007242208
224	0x3cc036ad	0.023463571
225	0x3d2ba632	0.041906543
226	0x3e48603a	0.19567958
227	0x3d734924	0.059395924
228	0xbdbeb8ee	-0.09312616
229	0x3df2d5c4	0.11857179
230	0xbc4432c3	-0.011974993
231	0xbd633f35	-0.0554802
232	0x3d838d67	0.06423455
233	0xbd8bd7be	-0.06828259
234	0xbd6cbf2e	-0.05779951
235	0xbd64576e	-0.055747442
236	0x3d0d9412	0.03456504
237	0x3d622880	0.055214405
238	0x3cde09e1	0.02710432
239	0xbbdd4c8c	-0.00675351
240	0xbc9d2c8e	-0.019186284
241	0x3dcdeb14	0.10054603
242	0x3c405c10	0.011740699
243	0x3d5ab34c	0.053393647
244	0x3ca2761e	0.019831713
245	0xbcf16185	-0.029465446
246	0x3ad60af2	0.0016330166
247	0x3db19dea	0.08672698
248	0x3d77e92c	0.060525104
249	0xbd0d2a7b	-0.03446434
250	0xbd2da6c2	-0.04239536
251	0xbd77beb5	-0.060484607
252	0x3e09b497	0.13447796
253	0x3d6acb12	0.05732257
254	0xbdbc5f28	-0.09197837
255	0xbdead145	-0.11465696

main.3.bias f4 [100]
0	0xbdbbc73e	-0.09168862
1	0x3d99dbbe	0.075126156
2	0xbd4bc2f9	-0.049746487
3	0x3d716310	0.058932364
4	0xbda9e478	-0.0829553
5	0x3d796acf	0.060892876
6	0x3d2a67c4	0.041602865
7	0x3db59d6f	0.08867919
8	0x3d8ba14e	0.06817876
9	0x3d74a4e1	0.059727553
10	0xbdba8d61	-0.09108997
11	0x3de2e8ea	0.11079581
12	0x3a340ba1	0.0006868188
13	0x3d181537	0.037129607
14	0x3dbe374b	0.0928789
15	0xbde723a7	-0.11286097
16	0xbb349280	-0.002755314
17	0x3d48384f	0.048881825
18	0xbd2b2b16	-0.041789137
19	0x3d8b0dd8	0.0678975
20	0xbdb8ee27	-0.09029799
21	0x3d8ba64e	0.068188295
22	0x3dae9608	0.0852471
23	0xbc9d7d41	-0.019224765
24	0x3d196a92	0.03745515
25	0x3cd4a7ad	0.02595886
26	0x3d3b4168	0.045716673
27	0xbce4e48e	-0.027941015
28	0xbd9ab8f1	-0.07554806
29	0x3d87dbcd	0.066337205
30	0x3da9161f	0.082561724
31	0x3da73604	0.081645995
32	0x3d29b1b4	0.041429237
33	0x3d136d33	0.035992812
34	0xbc2be208	-0.010490902
35	0x3d8150bd	0.06314228
36	0x3c291817	0.010320685
37	0x3d9a8caf	0.075463645
38	0xbd7bb8c7	-0.061455514
39	0xbdd1308e	-0.10214339
40	0x3c7ace68	0.015308
41	0x3ca7ff08	0.02050735
42	0xbd7b9a7e	-0.061426632
43	0xbd247550	-0.04015094
44	0x3d9e993e	0.077440724
45	0x3d63fcab	0.055660885
46	0xbd149a37	-0.036279883
47	0xbd49e566	-0.049291037
48	0xbd163119	-0.036667917
49	0xbca22806	-0.019794475
50	0x3d67992a	0.056542553
51	0x3d564d6f	0.05231994
52	0xbd7e4a20	-0.06208241
53	0x3db1dd06	0.08684735
54	0xbdc5c58a	-0.09656818
55	0x3dbc5687	0.09196191
56	0xbd4331be	-0.04765486
57	0xbcf1dc9d	-0.029524142
58	0xbd75ecb1	-0.06004018
59	0x3b0a4170	0.0021096133
60	0xbc62ac17	-0.013834975
61	0x3d7b3998	0.061334223
62	0xbda6e638	-0.081493795
63	0xbd796a71	-0.060892526
64	0xbd0be969	-0.034158144
65	0x3dab15de	0.0835378
66	0x3c8fe18b	0.017563602
67	0x3db988b9	0.09059281
68	0xbcdf020a	-0.027222652
69	0xbc41db5d	-0.011832085
70	0xbda95980	-0.08269024
71	0xbc03ce51	-0.008044795
72	0x3d0c6bb8	0.034282416
73	0xbd057857	-0.03258547
74	0xbd966d67	-0.073450856
75	0xbd828164	-0.063723356
76	0x3d2bea93	0.041971754
77	0xbd2114a9	-0.039326344
78	0xbdb4f7c5	-0.08836321
79	0x3d6e886b	0.058235567
80	0xbd26b42e	-0.040699176
81	0xbc7d9444	-0.015477244
82	0xbd2742c3	-0.040835153
83	0xbd8cbea9	-0.06872303
84	0xbdc241f1	-0.094852336
85	0x3cf66c6c	0.030080996
86	0xbd7744d2	-0.060368367
87	0x3d77c885	0.060493965
88	0xbdabc41d	-0.08387015
89	0xbc30b887	-0.010786182
90	0x3cfe8b16	0.03107218
91	0x3d47186c	0.048607275
92	0x3dd4a0d0	0.10382235
93	0xbd4cc3d9	-0.049991462
94	0xbd863030	-0.0655216
95	0x3c8e2206	0.017350208
96	0xbd0893a7	-0.033343937
97	0xbd0ce372	-0.034396596
98	0x3cb1c08b	0.021698257
99	0xbd6f7b36	-0.058467112

main.4.weight f4 [100]
0	0x3f78d81b	0.9720475
1	0x3f6f611c	0.9350755
2	0x3f7c8449	0.9863935
3	0x3f7daa0d	0.990876
4	0x3f70933d	0.9397467
5	0x3f85d771	1.0456372
6	0x3f7eeda0	0.99581337
7	0x3f7df668	0.9920411
8	0x3f6ef377	0.9334025
9	0x3f7b5b8a	0.9818655
10	0x3f7c4bed	0.98553354
11	0x3f85576e	1.0417306
12	0x3f81fde0	1.0155602
13	0x3f7d86b9	0.99033695
14	0x3f7d0991	0.9884272
15	0x3f83bd26	1.0292099
16	0x3f7fe345	0.9995616
17	0x3f7ce22f	0.9878263
18	0x3f81e73c	1.0148692
19	0x3f6c3de0	0.92281914
20	0x3f768179	0.9629131
21	0x3f810732	1.0080321
22	0x3f81cc30	1.0140438
23	0x3f7a7fc4	0.97851205
24	0x3f746bce	0.95476997
25	0x3f7248d6	0.9464239
26	0x3f80be64	1.0058103
27	0x3f79167c	0.97299933
28	0x3f8872bb	1.0660013
29	0x3f81acec	1.0130897
30	0x3f804a6f	1.0022715
31	0x3f81e37b	1.0147547
32	0x3f7ebdef	0.99508566
33	0x3f86db75	1.0535723
34	0x3f802a99	1.0013
35	0x3f823b76	1.0174396
36	0x3f72350a	0.9461218
37	0x3f7d7a8e	0.9901513
38	0x3f8457a7	1.0339249
39	0x3f7e30c0	0.99293137
40	0x3f79bc04	0.97552514
41	0x3f7ffdfd	0.9999693
42	0x3f85973f	1.0436782
43	0x3f7a2fce	0.97729194
44	0x3f732895	0.949838
45	0x3f80afdf	1.0053672
46	0x3f878699	1.0587951
47	0x3f7f356c	0.9969089
48	0x3f7e296f	0.9928197
49	0x3f7186ae	0.9434613
50	0x3f85602e	1.0419977
51	0x3f80266a	1.0011723
52	0x3f74bee4	0.95603776
53	0x3f714985	0.94252807
54	0x3f7e0279	0.9922252
55	0x3f7ae85b	0.98010796
56	0x3f85e962	1.0461848
57	0x3f88ea63	1.0696529
58	0x3f678401	0.90435797
59	0x3f7d43f3	0.9893181
60	0x3f8ac35d	1.084087
61	0x3f897aea	1.0740635
62	0x3f83476b	1.025617
63	0x3f7f82c5	0.99808913
64	0x3f887013	1.0659202
65	0x3f6fb447	0.93634456
66	0x3f771389	0.96514183
67	0x3f7eeb16	0.9957746
68	0x3f8711e6	1.0552337
69	0x3f836356	1.026469
70	0x3f7a7495	0.9783414
71	0x3f7469d8	0.95474005
72	0x3f736f17	0.95091385
73	0x3f841bcf	1.0320987
74	0x3f686eb3	0.90793914
75	0x3f7472b9	0.9548755
76	0x3f75c007	0.95996135
77	0x3f817c1f	1.0116004
78	0x3f6e0b2f	0.92985815
79	0x3f773e64	0.96579576
80	0x3f7efdfe	0.9960631
81	0x3f7f2e27	0.996798
82	0x3f833114	1.0249352
83	0x3f836e44	1.0268025
84	0x3f5da38b	0.8657767
85	0x3f7d9797	0.9905943
86	0x3f820d4d	1.0160309
87	0x3f80d4b2	1.006491
88	0x3f7f908c	0.99829936
89	0x3f85a06b	1.0439581
90	0x3f825d9a	1.0184815
91	0x3f7f1248	0.9963727
92	0x3f819c1b	1.0125765
93	0x3f7af1ae	0.98025024
94	0x3f80df50	1.006815
95	0x3f5c4ce2	0.86054814
96	0x3f733813	0.9500744
97	0x3f7e8499	0.9942108
98	0x3f8806a4	1.0627027
99	0x3f81c1db	1.0137285

main.4.bias f4 [100]
0	0xbdcb68c8	-0.09932095
1	0xbd9455df	-0.07242941
2	0xbd991306	-0.074743316
3	0xbd216a08	-0.03940776
4	0xbd10eee8	-0.03538409
5	0x3cd56c53	0.02605263
6	0xbc5bc3a6	-0.013413345
7	0xbb469461	-0.0030300843
8	0xbd0d16d4	-0.0344456
9	0xbda9fbeb	-0.08300003
10	0xbb98db2e	-0.0046648
11	0x3d5cae69	0.053877268
12	0x3c976462	0.018480483
13	0xbd37502a	-0.044754185
14	0xbd10655c	-0.035252914
15	0x3ce356c4	0.027751334
16	0xbc3ab238	-0.01139503
17	0xbcde651b	-0.02714782
18	0xbd90d2e8	-0.07071477
19	0xbd4b5173	-0.049638223
20	0x3abcca11	0.0014403482
21	0xbd1c1272	-0.03810353
22	0xbd1c2ffa	-0.03813169
23	0xbc64c736	-0.013963511
24	0xbd98f0ec	-0.07467827
25	0xbdd60416	-0.10449998
26	0xbca467b1	-0.020068975
27	0xbd587ebc	-0.05285524
28	0xbdba0518	-0.09083003
29	0xbd4986f2	-0.04920096
30	0xbd4e9610	-0.05043608
31	0xbd4ff0aa	-0.050766625
32	0xbd3c11af	-0.045915302
33	0xbb902d82	-0.004399956
34	0xbcc7626a	-0.02433892
35	0xbc1c7f4e	-0.009551836
36	0xbc04b829	-0.008100548
37	0x3c07feac	0.008300465
38	0xbc06a41c	-0.008217838
39	0xbca3b2d6	-0.019982737
40	0xbd3e5072	-0.046463437
41	0x3d498cfd	0.049206723
42	0xbca30e1d	-0.01990419
43	0x3bb085d3	0.005387047
44	0xbd637134	-0.05552788
45	0xbc817300	-0.015801907
46	0xbdb6a6b9	-0.089185186
47	0xbb8c0053	-0.0042724996
48	0xbce1bf0f	-0.027556924
49	0xbd8334ce	-0.06406556
50	0xbc8fd17d	-0.017555946
51	0xbd33bd01	-0.04388142
52	0xbcf7b1e8	-0.0302362
53	0xbd1f71ea	-0.038926996
54	0xbd7276cc	-0.059195325
55	0x3b96ecde	0.0046058735
56	0xbd3e6cd2	-0.046490498
57	0xbd869286	-0.06570916
58	0xbd8119b4	-0.063037306
59	0xbc951895	-0.018200198
60	0xbc98072a	-0.018558104
61	0x3d4ff42b	0.050769966
62	0xbcc6f4f6	-0.024286728
63	0xbd1cb823	-0.038261544
64	0xbd434c14	-0.047679976
65	0xbd5231be	-0.05131697
66	0xbc682b42	-0.01417047
67	0xbd9b8003	-0.07592776
68	0xbd85e2b7	-0.06537383
69	0xbcf16f62	-0.029472057
70	0x3d011075	0.031509835
71	0xbd9ae11b	-0.07562467
72	0xbc848304	-0.016175754
73	0x3d1ffa38	0.039056987
74	0xbc269f89	-0.010169872
75	0xbd7fa0b7	-0.06240913
76	0xbd58c754	-0.05292447
77	0x3c2702d7	0.010193548
78	0xbe06fa76	-0.13181481
79	0xbd1cc294	-0.0382715
80	0xbcf812d7	-0.030282421
81	0xbd2c25de	-0.0420283
82	0xbcb50ba3	-0.022100275
83	0x3d6e8a7e	0.058237545
84	0xbdbfe225	-0.093693055
85	0x3c1a11eb	0.009403686
86	0xbb976433	-0.004620099
87	0xbd742851	-0.05960876
88	0xbd045328	-0.032305866
89	0xbc7e38ae	-0.015516443
90	0xbb97f999	-0.0046379087
91	0xbd0b1a5b	-0.03396068
92	0xbcf33d5a	-0.02969234
93	0xbe02600a	-0.12731948
94	0xbc8106b7	-0.015750272
95	0xbddcabfc	-0.10774991
96	0xbd08990f	-0.033349093
97	0xbd901539	-0.07035298
98	0x3c0c969f	0.008580833
99	0xbd06b415	-0.032886583

main.4.running_mean f4 [100]
0	0xbe569c3a	-0.20958033
1	0x3eb91444	0.36148274
2	0x3f592b7c	0.84831977
3	0xbefc7a79	-0.4931219
4	0x3e5e372a	0.21700731
5	0xbd40c0c9	-0.047058854
6	0xbf10cc99	-0.5656219
7	0x3e626110	0.22107339
8	0x3ed9ff2e	0.425775
9	0x3d4cdf7e	0.050017826
10	0xbe944564	-0.2895919
11	0xbe4ef22a	-0.20209566
12	0xbd8e8c79	-0.06960387
13	0xbe87cfdc	-0.26525772
14	0x3e0588d8	0.13040483
15	0xbbccd2a1	-0.006250695
16	0xbdef8ea5	-0.11697129
17	0xbeec7eae	-0.461904
18	0xbe94f919	-0.29096296
19	0x3ddfea95	0.10933415
20	0xbf611ee4	-0.8793776
21	0x3d5ae386	0.05343964
22	0xbf1bb6c4	-0.60825753
23	0x3c0ba9e9	0.008524396
24	0xbf2da01f	-0.6782245
25	0x3e6adb36	0.22935185
26	0x3ab60e1c	0.0013889703
27	0xbea2275d	-0.31670657
28	0xbd2ce619	-0.042211626
29	0x3e8aa0ad	0.2707571
30	0x3eec69b6	0.461744
31	0xbeb97b27	-0.3622677
32	0xbe494d1b	-0.1965832
33	0xbe625c4e	-0.22105524
34	0xbe221744	-0.15829188
35	0x3d3f2d8e	0.046674304
36	0xbe696ffb	-0.22796623
37	0x3f07b23a	0.5300633
38	0xbec4a3fe	-0.38406366
39	0x3e295afb	0.16538613
40	0xbe986c13	-0.29769954
41	0xbeb7f0f4	-0.3592602
42	0xbea4eb04	-0.32210553
43	0x3d65d085	0.056107063
44	0x3d823cd5	0.06359259
45	0xbd1ef030	-0.03880328
46	0xbf2df902	-0.6795808
47	0xbf11d6c7	-0.5696835
48	0xbef0ce10	-0.47032213
49	0xbdb35ac1	-0.08757544
50	0x3dd6a6fb	0.10481068
51	0x3ded07f3	0.11573782
52	0xbdbe09ec	-0.09279236
53	0xbe462a06	-0.19351968
54	0xbe64e5d8	-0.22353303
55	0xbf1dcef2	-0.616439
56	0xbd8a176d	-0.06742749
57	0x3ed3e98d	0.41389123
58	0xbe81988d	-0.253117
59	0x3e943f19	0.2895439
60	0x3df639a4	0.12022713
61	0xbde9da36	-0.114185736
62	0x3b82e616	0.0039947135
63	0x3f18fc6a	0.59760153
64	0xbe5896aa	-0.21151224
65	0xbd7c050a	-0.061528243
66	0xbf16f76e	-0.589713
67	0x3dc8f8fc	0.09813115
68	0x3ea0a74c	0.31377637
69	0xbe3ad4a9	-0.18245186
70	0x3dd23b5a	0.10265227
71	0x3cab77b9	0.020931112
72	0x3e2f07a6	0.17092761
73	0xbeb6302f	-0.35583636
74	0xbeaf3808	-0.34222436
75	0x3eb33ccc	0.35007322
76	0xbec05e08	-0.3757174
77	0x3d82b6b4	0.06382504
78	0xbeb29968	-0.34882665
79	0x3d96df72	0.073668376
80	0xbf093031	-0.5358916
81	0xbde1b2c8	-0.11020428
82	0xbef54c72	-0.47909886
83	0xbebef7b9	-0.37298372
84	0xbed1e720	-0.40996647
85	0x3e8ee492	0.2790876
86	0xbf56300e	-0.83667076
87	0xbf0e5654	-0.55600476
88	0x3e320d72	0.17387941
89	0xbe4713b7	-0.19441114
90	0xbed72402	-0.4201966
91	0xbe187120	-0.14886904
92	0xbe31c3a3	-0.17359786
93	0x3f4d2296	0.801309
94	0xbeba396e	-0.3637194
95	0xbee4def7	-0.4470136
96	0x3cf800d6	0.030273836
97	0xbef24fc2	-0.47326475
98	0xbe181068	-0.14850008
99	0xbdac2e38	-0.08407253

main.4.running_var f4 [100]
0	0x3e81eddc	0.25376785
1	0x3e69df08	0.22838986
2	0x3e73d73e	0.23812577
3	0x3e500ed5	0.20318158
4	0x3f079dc0	0.5297508
5	0x3e88eb0e	0.26741832
6	0x3e90b289	0.28261212
7	0x3ec616da	0.3868931
8	0x3e6e7592	0.23287037
9	0x3f072653	0.52792853
10	0x3f01e7c6	0.50744283
11	0x3eac1a27	0.33613703
12	0x3e99f70f	0.30071303
13	0x3e289060	0.16461325
14	0x3e827608	0.25480676
15	0x3e8d658f	0.27616546
16	0x3e4ea4a6	0.20179996
17	0x3e8353df	0.25649926
18	0x3e702f3b	0.23455517
19	0x3f0e47ce	0.55578315
20	0x3eefecec	0.46860445
21	0x3e90dcd1	0.2829347
22	0x3e3cf06b	0.18451087
23	0x3eb2c3de	0.3491506
24	0x3f07d51f	0.5305957
25	0x3e371a38	0.17881095
26	0x3ed7b2a5	0.42128482
27	0x3e410821	0.18850757
28	0x3e347a2b	0.17624728
29	0x3e7d7280	0.2475071
30	0x3e352d63	0.17693095
31	0x3ec67a35	0.38765112
32	0x3e46b7ab	0.19406001
33	0x3e8fd4f4	0.28092158
34	0x3e969375	0.29409376
35	0x3ea4dbac	0.32198846
36	0x3ec48172	0.3838001
37	0x3f20a47a	0.6275097
38	0x3e829c80	0.25510025
39	0x3eb1e8e1	0.34747985
40	0x3e95b577	0.2924001
41	0x3eb37b07	0.350548
42	0x3e9bb28d	0.3040966
43	0x3e6d604f	0.2318127
44	0x3e7e8ac4	0.24857622
45	0x3e1f3256	0.15546545
46	0x3e85e444	0.26150715
47	0x3ea6b963	0.32563314
48	0x3e85a3dc	0.26101577
49	0x3e67b49a	0.22627488
50	0x3eb3a058	0.3508327
51	0x3e37ce4f	0.17949794
52	0x3e905a94	0.28194106
53	0x3ebe2521	0.37137702
54	0x3e69dffc	0.2283935
55	0x3f18ef46	0.597401
56	0x3e54068f	0.20705627
57	0x3e592921	0.21207096
58	0x3e960e98	0.2930801
59	0x3ebad62b	0.36491522
60	0x3ea0eef0	0.31432295
61	0x3e2eba9e	0.17063376
62	0x3e21342a	0.15742555
63	0x3e5a9ebb	0.21349613
64	0x3e964e50	0.29356623
65	0x3f1b393a	0.60634196
66	0x3eaea1b3	0.34107742
67	0x3e6bb030	0.23016429
68	0x3e7be50b	0.24599092
69	0x3e9b8dcc	0.3038162
70	0x3e78f364	0.24311596
71	0x3eb14f6c	0.34630907
72	0x3ec7b9c1	0.39008906
73	0x3e4dd002	0.2009888
74	0x3f05efa1	0.5231877
75	0x3e3dc0ec	0.18530625
76	0x3ec99465	0.3937103
77	0x3e99b3cd	0.3001999
78	0x3e3afeca	0.18261257
79	0x3e4bb1a9	0.1989199
80	0x3efd0cd7	0.4942386
81	0x3de64cbe	0.11245106
82	0x3ede62a2	0.43434626
83	0x3e96e4a6	0.2947132
84	0x3e8c649b	0.27420506
85	0x3e76aa94	0.24088508
86	0x3ee0ed80	0.43931198
87	0x3ef1be04	0.47215283
88	0x3ecfa723	0.40557203
89	0x3e876bcd	0.26449433
90	0x3e2481e9	0.16065182
91	0x3e99ed20	0.30063725
92	0x3e967cc1	0.29392055
93	0x3e525b82	0.2054272
94	0x3ec07599	0.3758972
95	0x3f04439d	0.5166567
96	0x3ec56151	0.3855081
97	0x3e6fa772	0.23403719
98	0x3edcf8e4	0.43158638
99	0x3e8ad113	0.27112636

main.6.weight f4 [100, 100]
0	0xbde70004	-0.112793
1	0x3d2a4a8e	0.041575007
2	0x3dcd3912	0.10020651
3	0xbccd1cd2	-0.025038157
4	0xbd64e0c8	-0.05587843
5	0x3d88c1f5	0.06677619
6	0xbcb7ec14	-0.022451438
7	0x3d3a17ca	0.045432843
8	0xbe059b29	-0.1304747
9	0x3dc299c9	0.095019884
10	0xbe15f37c	-0.14643663
11	0x3d872ab0	0.06599939
12	0xbd43adcd	-0.04777317
13	0x3da06dbe	0.07833432
14	0xbdc18c3c	-0.09450576
15	0x3d9e7b5e	0.07738374
16	0xbdf8eea4	-0.12154892
17	0xbd419fcb	-0.04727153
18	0xbd90052d	-0.07032237
19	0x3c3d9814	0.011571903
20	0xbdc650d6	-0.09683387
21	0xbdbd65a3	-0.09247901
22	0xbd90fd8a	-0.07079609
23	0xbdd29046	-0.10281424
24	0xbcd00874	-0.025394656
25	0xbdc6bb73	-0.09703722
26	0xbcf4dacd	-0.029889489
27	0x3be0e99c	0.006863786
28	0xbdb3857f	-0.08765697
29	0xbd6d868c	-0.057989642
30	0xbc6d306e	-0.014476879
31	0x3db3e339	0.08783574
32	0x3d1a47cb	0.037666123
33	0xbd4d200a	-0.050079383
34	0x3d469f06	0.0484915
35	0x3dd8fedd	0.10595486
36	0xbd99cfa5	-0.07510308
37	0xbdc63cd7	-0.09679573
38	0xbd25d024	-0.0404817
39	0x3e3266a0	0.17421961
40	0x3cd3400b	0.025787374
41	0xbdf30805	-0.11866764
42	0x3bdc6b5c	0.0067266654
43	0x3d00a0a7	0.03140321
44	0x3d8f9bfa	0.07012172
45	0x3cb74a6a	0.02237435
46	0xba993735	-0.0011689427
47	0x3db35537	0.08756488
48	0x3ddb0157	0.10693615
49	0x3c9b19ea	0.018933255
50	0x3d997208	0.07492453
51	0xbd734f17	-0.059401598
52	0xbd805472	-0.06266107
53	0x3d7cf911	0.061760966
54	0xbda1936f	-0.07889449
55	0xbdabefba	-0.083953336
56	0x3db6ff3a	0.08935399
57	0xbba2962d	-0.00496175
58	0xbd8a8d58	-0.067652404
59	0x3d212cf2	0.039349504
60	0x3dc5b092	0.09652819
61	0xbd5f2176	-0.05447527
62	0x3d0d74fc	0.034535393
63	0xbd100ebd	-0.035170306
64	0x3d514230	0.051088512
65	0xbcbe7908	-0.023251072
66	0x3cd243aa	0.02566703
67	0x3d12add6	0.035810314
68	0x3e1276d4	0.14303142
69	0x3d710500	0.05884266
70	0xbcb8ef83	-0.022575146
71	0xbda0c509	-0.078500815
72	0x3d8229a8	0.063556015
73	0x3d8944fb	0.0670261
74	0xba37e710	-0.0007015327
75	0x3da7c042	0.08190967
76	0x3df4d5d8	0.1195485
77	0xbcd0c4ea	-0.025484521
78	0xbd377f08	-0.04479888
79	0x3c0ce142	0.0085986275
80	0x3d0cedc0	0.034406424
81	0xbc302bab	-0.010752599
82	0x3d70a2d9	0.058749054
83	0x3d76dd78	0.060269803
84	0xbd73b12d	-0.05949514
85	0xbc95f164	-0.01830358
86	0xbd971b42	-0.07378246
87	0xbdd5d550	-0.10441077
88	0x3d5954a5	0.05305924
89	0x3dcbb00c	0.09945688
90	0xbdf9b820	-0.12193322
91	0xbde3c21d	-0.111210085
92	0xbd983eb2	-0.07433833
93	0x3ba84041	0.005134613
94	0x3da0edf7	0.07857888
95	0x3d83a030	0.06427038
96	0xbcf34554	-0.029696144
97	0xbd9e144d	-0.07718716
98	0x3db34c2d	0.08754764
99	0x3e030fcb	0.12798993
100	0xbd1560e2	-0.036469348
101	0xbd7739a0	-0.06035769
102	0x3c7b83a4	0.01535121
103	0x3cc9d0d3	0.024635708
104	0x3d8441b1	0.06457842
105	0x3d4ff44a	0.05077008
106	0x3bbd1f18	0.005771529
107	0x3d95276a	0.07282908
108	0xbdbb7142	-0.091524616
109	0xbd505768	-0.050864607
110	0x3d065e74	0.03280492
111	0xbc8ed5f3	-0.017436003
112	0x3e1049ee	0.14090702
113	0x3df46f76	0.11935322
114	0xbd9f7f3c	-0.0778794
115	0x3d4e3473	0.05034299
116	0x3d13a138	0.036042422
117	0x3ccc214c	0.024918221
118	0x3cfa6c47	0.030569209
119	0x3d1ef78a	0.03881029
120	0x3d80edbb	0.062953435
121	0x3d754fb9	0.059890483
122	0xbd2362f4	-0.03988929
123	0xbd08b52e	-0.03337591
124	0xbd9b46f3	-0.07581892
125	0x3d4098ee	0.047020845
126	0x3d96dd5c	0.0736644
127	0xbdd11622	-0.102092996
128	0xbc21562b	-0.009847204
129	0x3d9e0aa7	0.077168755
130	0xbe01288f	-0.12613128
131	0xbd37bd76	-0.04485842
132	0xbd375692	-0.044760294
133	0xbdf3ae94	-0.118985325
134	0xbbf7e6cf	-0.0075653563
135	0xbccb9957	-0.024853392
136	0xbd15c8b3	-0.036568355
137	0xbd3c7c9c	-0.046017274
138	0x3d44614c	0.047944352
139	0x3e071ed4	0.13195354
140	0x3dcb8c4c	0.09938869
141	0xbdba8829	-0.09108002
142	0x3dbf0177	0.09326451
143	0xbda28fae	-0.07937561
144	0xbca802a1	-0.020509066
145	0x3db71562	0.08939625
146	0xbe015fbf	-0.1263418
147	0xbd6ea0ea	-0.05825893
148	0xbd7324fb	-0.05936144
149	0xbd6eacfa	-0.058270432
150	0x3ddfa9d2	0.109210625
151	0x3c6194c8	0.013768382
152	0xbd5af869	-0.05345956
153	0x3db5294f	0.088457696
154	0xbc2411f9	-0.010014051
155	0xbd8981cc	-0.0671421
156	0xbe14d96b	-0.14536063
157	0xbc3a5cbb	-0.011374648
158	0x3c28fc97	0.010314128
159	0x3da0f038	0.07858318
160	0x3dcc7cb2	0.09984721
161	0xbe0feac8	-0.14054406
162	0xbda99d73	-0.08281984
163	0x3989687c	0.00026208523
164	0x3dcc8303	0.09985926
165	0x3d8cb94c	0.0687128
166	0x3d4b0293	0.049563
167	0xbd4d85a6	-0.050176285
168	0x3d559ef7	0.052153554
169	0x3e07928f	0.13239501
170	0x3d95f18e	0.073214635
171	0xbc829595	-0.015940467
172	0x3d134b53	0.035960507
173	0xbbd65699	-0.006541085
174	0xbddcde9b	-0.10784646
175	0x3d837d80	0.064204216
176	0xbdb3b590	-0.08774865
177	0x3df541c1	0.11975432
178	0xbda01b34	-0.078176886
179	0x3d3ed8ef	0.046593603
180	0xbd53a5ef	-0.05167192
181	0xbcb88f44	-0.022529252
182	0xbe226871	-0.15860154
183	0xbd26a750	-0.040686905
184	0xbc02a214	-0.007973213
185	0x3d2590df	0.040421363
186	0xbd87ba2d	-0.06627307
187	0x3d95a2da	0.07306452
188	0x3d29a7b4	0.0414197
189	0x3db860c4	0.090028316
190	0x3d954632	0.07288779
191	0x3cb71edf	0.022353588
192	0xbd11058f	-0.03540569
193	0x3dec81ae	0.11548172
194	0x3d880b9a	0.06642838
195	0x3d793e76	0.060850583
196	0x3c898a9a	0.016789723
197	0x3d3fe59a	0.046849824
198	0xbc018254	-0.007904608
199	0x3ce7f551	0.028315218
200	0x3d673e5f	0.056455966
201	0xbdb187d9	-0.08668489
202	0x3db714f7	0.089395456
203	0x3dc46a8a	0.09590633
204	0xbcb20e7d	-0.021735424
205	0x3ccf7b8f	0.025327472
206	0x3b06dc3a	0.0020578043
207	0xbe032c26	-0.1280981
208	0xbe251410	-0.16120934
209	0x3e03df51	0.12878157
210	0xbc33f9b8	-0.010984831
211	0xbc679d14	-0.014136571
212	0x3da24a2d	0.07924304
213	0x3d8c7f7b	0.068602525
214	0x3cf53798	0.029933736
215	0x3db0c381	0.086310394
216	0xbce5abb0	-0.028035969
217	0xbd645921	-0.055749062
218	0xbdeca9e0	-0.115558386
219	0xbda7fe12	-0.08202757
220	0xbdf5dead	-0.12005363
221	0x3dc021cc	0.09381446
222	0x3e192bac	0.14958066
223	0x3db16820	0.086624384
224	0xbd8c1062	-0.06839062
225	0xbc4a61ed	-0.012352449
226	0x3cd141e5	0.025544116
227	0x3d24c469	0.040226374
228	0xbdc2d85d	-0.09513924
229	0xbdc403a7	-0.09571009
230	0xbb241f8d	-0.002504322
231	0x3dde2ab7	0.10847991
232	0x3ca855cc	0.020548724
233	0xbcfb53b1	-0.030679556
234	0xbd07c6be	-0.03314852
235	0xbdd5646c	-0.104195446
236	0x3d9623d9	0.07331056
237	0xbd8050d9	-0.062654205
238	0x3ca430e7	0.02004285
239	0xbd46e6b7	-0.04855987
240	0xbdda2364	-0.106512815
241	0x3d0e1db9	0.034696314
242	0x3d7e14fd	0.062031735
243	0xbdb46889	-0.08809001
244	0x3c1991f8	0.009373181
245	0xbdd404da	-0.10352488
246	0xbe300f20	-0.1719327
247	0x3ccabd4d	0.024748469
248	0x3da00660	0.07813716
249	0x3a34dffb	0.0006899831
250	0x3e08f094	0.13373023
251	0x3d7cd2cc	0.06172447
252	0x3cf6fd6b	0.030150136
253	0x3d10164f	0.035177525
254	0xbb2fbda1	-0.0026815908
255	0x3d543eec	0.05181782

main.6.bias f4 [100]
0	0x3c8f7a78	0.017514452
1	0x3d382a63	0.044962298
2	0xbd27b7b1	-0.040946666
3	0x3b3bdabd	0.0028664314
4	0xbd763065	-0.060104746
5	0xbdcd0af8	-0.10011858
6	0xbdb7167f	-0.08939838
7	0xbd680c2e	-0.05665224
8	0xbce7deff	-0.028304575
9	0xbd5e1431	-0.054218475
10	0xbc50a8cb	-0.012735556
11	0x3cdc17ca	0.026866812
12	0xbcad1597	-0.021128459
13	0xbd613e07	-0.054990795
14	0xbd650e2b	-0.055921715
15	0xbdad5af4	-0.084646136
16	0xbd23757b	-0.03990696
17	0x3cd6e0f1	0.026230307
18	0x3da2a682	0.07941915
19	0x3dd1d0ca	0.102449015
20	0xbd81f2b1	-0.06345118
21	0x3cb267c5	0.021777997
22	0xbd56c520	-0.052434087
23	0x3daffeb7	0.08593505
24	0xbbdfbd3c	-0.0068279784
25	0xbd304cad	-0.043041874
26	0x3d093f59	0.03350768
27	0x3da31017	0.07962053
28	0xbdd4fff5	-0.104003824
29	0xbcaea543	-0.021319037
30	0xbc8a766f	-0.016902177
31	0xbd885824	-0.066574365
32	0x3d705423	0.05867399
33	0xbd9a9ad6	-0.07549064
34	0xbd879cbf	-0.06621694
35	0x3aa73a99	0.0012758552
36	0xbd8388c9	-0.06422574
37	0xbde337b8	-0.11094612
38	0x3d2424e8	0.04007426
39	0xbdad1417	-0.084510975
40	0xbcafff50	-0.021484047
41	0x3cff31dd	0.031151706
42	0xbd892821	-0.06697107
43	0x3d33c5ec	0.043889925
44	0x3d897739	0.06712193
45	0x3d98e891	0.074662335
46	0x3dc3d103	0.0956135
47	0xbcdcb2e1	-0.026940765
48	0xbdbec9a7	-0.09315806
49	0x3b1e1011	0.0024118463
50	0x3ab80414	0.0014039301
51	0x3ccb35e9	0.02480598
52	0xbc4c89eb	-0.012484054
53	0xbdcecb6a	-0.10097392
54	0x3d918fa4	0.071074754
55	0xbd202527	-0.03909793
56	0x3cb5cafb	0.022191515
57	0xbd4e0fe3	-0.05030812
58	0x3d6a9ecc	0.057280347
59	0x3d20c135	0.039246757
60	0xbda1d41a	-0.07901783
61	0x3d7412bb	0.059588175
62	0x3cf3790d	0.029720807
63	0xbd1b2ad3	-0.037882637
64	0x3ca1a9ed	0.019734347
65	0xbc9ae2a7	-0.018906904
66	0x3cdd83d5	0.027040401
67	0x3dd06e1e	0.10177253
68	0xbd735790	-0.059409678
69	0xbbfd49e7	-0.007729757
70	0xbd58d1de	-0.05293452
71	0x3d4f4c7a	0.050610043
72	0x3da70164	0.08154562
73	0x3d47b2e9	0.048754606
74	0x3d077ffb	0.033081036
75	0x3d4413c5	0.047870416
76	0xbd86bf78	-0.065794885
77	0x3d1df63c	0.038564906
78	0x3d37d976	0.04488512
79	0x3db0ae7a	0.08627029
80	0x3ca5c28d	0.02023437
81	0x3c09e410	0.008416191
82	0x3dc65480	0.09684086
83	0xbd43c861	-0.047798518
84	0xbd780f8e	-0.06056171
85	0xbdbae099	-0.0912487
86	0x3dc93858	0.098252
87	0xbdb78dd8	-0.089626014
88	0xbb92945e	-0.004473253
89	0x3d7bd9a8	0.06148687
90	0xbcd94544	-0.026522286
91	0x3d19e1a7	0.037568714
92	0xbc8123ea	-0.015764195
93	0xbcb74c1d	-0.02237516
94	0xbc9baae8	-0.019002393
95	0x3dba19ac	0.09086928
96	0x3d8f0d80	0.06984997
97	0x3d783697	0.060598936
98	0x3dc2043f	0.09473466
99	0xbd997399	-0.07492752
